Data/Numpy/noBERT/weight.npy (npy, 137416 bytes, 1 tensors)

array f8 [131, 131]
000000 5b aa a2 2a 9e 06 27 40 de 17 27 83 d1 a2 10 40
       11.512925464970229 4.159002351056158
000010 40 a1 8f 46 12 ba 0b 40 37 ae f7 c8 ad 7b 08 40
       3.465855170496212 3.060390062388048
000020 c5 12 d1 86 81 2e 06 40 23 69 57 0a 82 65 04 40
       2.772707989936267 2.5495644386220575
000030 bb 1f 39 09 1d f0 02 40 90 02 35 af 69 b4 01 40
       2.3672428818281026 2.213092202000844
000040 49 84 12 c7 f0 a2 00 40 64 59 42 17 71 63 ff 3f
       2.079560809376322 1.9617777737199384
000050 4e b5 31 95 e2 b3 fd 3f e1 f0 9d 9d 7e 2d fc 3f
       1.856417258062112 1.7611070782577871
000060 7e 22 f5 92 18 c9 fa 3f d6 46 39 b6 3d 81 f9 3f
       1.6740957012681572 1.5940529935946208
000070 29 e8 ec de b1 51 f8 3f 3a cf 01 9a 19 37 f7 3f
       1.519945021440899 1.4509521499539475
000080 9a eb a7 0e c0 2e f6 3f 84 60 a7 88 6e 36 f5 3f
       1.3864136288163764 1.3257890069999414
000090 6c 3c c5 97 4f 4c f4 3f 1f f9 92 00 da 6e f3 3f
       1.268630593159993 1.214563371889717
0000a0 56 98 b4 15 c1 9c f2 3f 16 02 bd e3 e8 d4 f1 3f
       1.1632700775021667 1.1144799133327346
0000b0 e9 d3 20 1e 5d 16 f1 3f 98 f7 f8 10 4a 60 f0 3f
       1.0679598976978417 1.023508135127008
0000c0 0e 0b f0 26 ee 63 ef 3f 23 8a 82 39 84 15 ee 3f
       0.980948520708212 0.9401265261879569
0000d0 bd 53 78 6d 38 d4 ec 3f b1 ac 2a 39 0d 9f eb 3f
       0.9009058130346755 0.8631654850518286
0000e0 64 96 df be 20 75 ea 3f 77 c6 00 ea a8 55 e9 3f
       0.8267978408809538 0.7917065210696838
0000f0 85 64 09 35 f0 3f e8 3f 89 11 f4 f6 52 33 e7 3f
       0.7578049693940022 0.7250151465710114
000100 45 9d 55 1e 3d 2f e6 3f ac db e1 45 28 33 e5 3f
       0.6932664482564311 0.6624947895896773
000110 19 87 54 12 9a 3e e4 3f dc ef f8 cc 22 51 e3 3f
       0.6326418264399961 0.603654289566744
000120 e9 3e 90 30 5c 6a e2 3f fb 9f 4d 60 e8 89 e1 3f
       0.5754834126000478 0.5480844384119331
000130 4f b8 2b 02 71 af e0 3f 2e 0f 31 ee 4c b5 df 3f
       0.5214161913297718 0.49544070492651116
000140 7b ed dd 58 7e 16 de 3f 73 1b fc 05 ee 81 dc 3f
       0.4701228969422215 0.4454302843518498
000150 7a 94 ff 90 1d f7 da 3f 58 1d ca 81 97 75 d9 3f
       0.42133273277278926 0.3978022353625952
000160 c6 db 8e 7a ee fc d7 3f c1 30 53 7d bc 8c d6 3f
       0.37481271713789643 0.352339861285838
000170 82 6a ef 45 a2 24 d5 3f 2e f8 e9 b5 46 c4 d3 3f
       0.3303609545670626 0.308854749346099
000180 3d a2 eb 4f 56 6b d2 3f 29 ab de c0 82 19 d1 3f
       0.2878013401482667 0.26718205294553116
000190 cf 40 21 ea 04 9d cf 3f d0 eb d2 6f 20 14 cd 3f
       0.24697934562801158 0.22717671833183184
0001a0 39 67 f8 b9 d5 97 ca 3f 17 31 bf e2 a9 27 c8 3f
       0.20775863247473028 0.1887104375040358
0001b0 07 cb c1 e8 28 c3 c5 3f 6c 1d 83 2d e5 69 c3 3f
       0.17001830449188324 0.15166916582368672
0001c0 d1 71 95 ff 76 1b c1 3f 4e 61 5f 5e f8 ae bd 3f
       0.1336506603210084 0.11595108322160749
0001d0 3d 64 34 58 2f 3b b9 3f 58 99 fb 57 e2 da b4 3f
       0.09855934050973843 0.08146490715043819
0001e0 b2 54 79 b0 69 8d b0 3f 9b e8 55 0a 4c a4 a8 3f
       0.06465778883405696 0.0481284868828464
0001f0 9d 79 9d 7f ff 50 a0 3f f8 c2 ff 43 9a 3f 90 3f
       0.0318679660110661 0.015867624664624963
000200 2f b1 6a 6c eb 43 1f 3f 80 2e 23 da 20 82 8f bf
       0.00011926769648579605 -0.015384918839479456
000210 6d c8 0b 23 57 63 9f bf a3 a7 7c 00 b7 64 a7 bf
       -0.030652390970267996 -0.0456902683348084
000220 5c 2d 5b ca 8e fa ae bf 33 b7 40 9b 06 3a b3 bf
       -0.060505354119949145 -0.07510415354110193
000230 97 50 0a 90 01 e9 b6 bf b6 ba 6f 3f 9c 8a ba bf
       -0.08949289099320122 -0.10367752598515775
000240 32 d8 4f 73 36 1f be bf 03 01 63 ff 95 d3 c0 bf
       -0.11766376795989755 -0.13145709009223347
000250 d0 67 b2 7a 6a 91 c2 bf c8 ef 5d ef 42 49 c4 bf
       -0.14506274214801218 -0.15848576248015278
000260 80 06 3a f3 47 fb c5 bf b2 4b a3 84 a0 a7 c7 bf
       -0.1717309892301735 -0.18480307079752617
000270 61 c9 86 1f 72 4e c9 bf 9c 32 13 d1 e0 ef ca bf
       -0.19770647563343416 -0.21044550141086382
000280 c8 0c 2d 4a 0f 8c cc bf 8f 65 bd f0 1e 23 ce bf
       -0.22302428361772386 -0.2354468036162811
000290 d7 b0 f0 ef 2f b5 cf bf 38 ca bc a3 30 a1 d0 bf
       -0.24771689620809553 -0.25983825674044025
0002a0 64 df f4 6c 68 65 d1 bf ba b2 18 bd 4d 27 d2 bf
       -0.271814447787156 -0.28364890543415877
0002b0 87 56 2a 7c ee e6 d2 bf 41 7f b2 16 58 a4 d3 bf
       -0.29534494519735016 -0.3069057675984262
0002c0 18 98 65 83 97 5f d4 bf 81 31 77 48 b9 18 d5 bf
       -0.31833446342204885 -0.32963401867598213
0002d0 1d 43 a1 80 c9 cf d5 bf 03 4e e4 df d3 84 d6 bf
       -0.3408073192741073 -0.35185715546069235
0002e0 5c 09 05 b8 e3 37 d7 bf 18 e9 cb fc 03 e9 d7 bf
       -0.3627862259928827 -0.37359714209709827
0002f0 b0 7b 0a 48 3f 98 d8 bf 52 50 6a dd 9f 45 d9 bf
       -0.38429243121384626 -0.3948745405443833
000300 a2 d1 08 ae 2f f1 d9 bf a0 41 e3 5b f8 9a da bf
       -0.40534584041167865 -0.41570862744722525
000310 b5 c8 15 3d 03 43 db bf d0 54 f0 5e 59 e9 db bf
       -0.42596512761441413 -0.4361174990784322
000320 77 d3 e3 88 03 8e dc bf 2a 25 4a 3f 0a 31 dd bf
       -0.44616783493193374 -0.4561181657851018
000330 f6 fd 0a c6 75 d2 dd bf dc c0 1f 23 4e 72 de bf
       -0.46597046222811345 -0.4757266371734781
000340 42 40 f8 20 9b 10 df bf 75 2c c2 50 64 ad df bf
       -0.48538854808521503 -0.4949579991013658
000350 a9 6d 4a 86 58 24 e0 bf ea 7b c1 3c 44 71 e0 bf
       -0.5044367430559095 -0.5138264834057484
000360 2d c7 c9 c4 78 bd e0 bf 41 e9 d1 7e f9 08 e1 bf
       -0.523128876068062 -0.532345531172986
000370 94 72 99 b3 c9 53 e1 bf 19 66 0c 95 ec 9d e1 bf
       -0.5414780147362586 -0.5505278502561765
000380 7b dd 14 3f 65 e7 e1 bf ee 5b 63 b8 36 30 e2 bf
       -0.5594965202389369 -0.568385467656183
000390 c6 4d 2e f3 63 78 e2 bf 37 2b e9 cd ef bf e2 bf
       -0.5771960973383379 -0.5859297773070925
0003a0 68 ad f3 13 dd 06 e3 bf 7d 7e 41 7e 2e 4d e3 bf
       -0.5945878400502069 -0.6031715837415984
0003b0 c4 c6 fa b3 e6 92 e3 bf a5 f3 15 4b 08 d8 e3 bf
       -0.6116822734095071 -0.6201211420553717
0003c0 59 0f eb c8 95 1c e4 bf 6e fb c0 a2 91 60 e4 bf
       -0.6284893917258884 -0.6367881945405836
0003d0 66 db 54 3e fe a3 e4 bf 5c f8 5b f2 dd e6 e4 bf
       -0.645018693677099 -0.65318200431626
0003e0 55 62 00 07 33 29 e5 bf 44 90 58 b6 ff 6a e5 bf
       -0.6612792145488792 -0.6693113862461435
0003f0 d7 3b da 2c 46 ac e5 bf 1f b3 c8 89 08 ed e5 bf
       -0.6772795558953203 -0.6851847354024335
000400 9a d6 9e df 48 2d e6 bf 6a f7 74 34 09 6d e6 bf
       -0.6930279128634595 -0.7008100533055146
000410 5b aa a2 2a 9e 06 27 40 00 00 00 00 00 00 00 80
       11.512925464970229 -0.0
000420 5b aa a2 2a 9e 06 27 40 5b aa a2 2a 9e 06 27 40
       11.512925464970229 11.512925464970229
000430 5b aa a2 2a 9e 06 27 40 5b aa a2 2a 9e 06 27 40
       11.512925464970229 11.512925464970229
000440 5b aa a2 2a 9e 06 27 40 5b aa a2 2a 9e 06 27 40
       11.512925464970229 11.512925464970229
000450 5b aa a2 2a 9e 06 27 40 5b aa a2 2a 9e 06 27 40
       11.512925464970229 11.512925464970229
000460 5b aa a2 2a 9e 06 27 40 5b aa a2 2a 9e 06 27 40
       11.512925464970229 11.512925464970229
000470 5b aa a2 2a 9e 06 27 40 5b aa a2 2a 9e 06 27 40
       11.512925464970229 11.512925464970229
000480 5b aa a2 2a 9e 06 27 40 5b aa a2 2a 9e 06 27 40
       11.512925464970229 11.512925464970229
000490 5b aa a2 2a 9e 06 27 40 5b aa a2 2a 9e 06 27 40
       11.512925464970229 11.512925464970229
0004a0 5b aa a2 2a 9e 06 27 40 5b aa a2 2a 9e 06 27 40
       11.512925464970229 11.512925464970229
0004b0 5b aa a2 2a 9e 06 27 40 5b aa a2 2a 9e 06 27 40
       11.512925464970229 11.512925464970229
0004c0 5b aa a2 2a 9e 06 27 40 5b aa a2 2a 9e 06 27 40
       11.512925464970229 11.512925464970229
0004d0 5b aa a2 2a 9e 06 27 40 5b aa a2 2a 9e 06 27 40
       11.512925464970229 11.512925464970229
0004e0 5b aa a2 2a 9e 06 27 40 5b aa a2 2a 9e 06 27 40
       11.512925464970229 11.512925464970229
0004f0 5b aa a2 2a 9e 06 27 40 5b aa a2 2a 9e 06 27 40
       11.512925464970229 11.512925464970229
000500 5b aa a2 2a 9e 06 27 40 5b aa a2 2a 9e 06 27 40
       11.512925464970229 11.512925464970229
000510 5b aa a2 2a 9e 06 27 40 5b aa a2 2a 9e 06 27 40
       11.512925464970229 11.512925464970229
000520 5b aa a2 2a 9e 06 27 40 5b aa a2 2a 9e 06 27 40
       11.512925464970229 11.512925464970229
000530 5b aa a2 2a 9e 06 27 40 5b aa a2 2a 9e 06 27 40
       11.512925464970229 11.512925464970229
000540 5b aa a2 2a 9e 06 27 40 5b aa a2 2a 9e 06 27 40
       11.512925464970229 11.512925464970229
000550 5b aa a2 2a 9e 06 27 40 5b aa a2 2a 9e 06 27 40
       11.512925464970229 11.512925464970229
000560 5b aa a2 2a 9e 06 27 40 5b aa a2 2a 9e 06 27 40
       11.512925464970229 11.512925464970229
000570 5b aa a2 2a 9e 06 27 40 5b aa a2 2a 9e 06 27 40
       11.512925464970229 11.512925464970229
000580 5b aa a2 2a 9e 06 27 40 5b aa a2 2a 9e 06 27 40
       11.512925464970229 11.512925464970229
000590 5b aa a2 2a 9e 06 27 40 5b aa a2 2a 9e 06 27 40
       11.512925464970229 11.512925464970229
0005a0 5b aa a2 2a 9e 06 27 40 5b aa a2 2a 9e 06 27 40
       11.512925464970229 11.512925464970229
0005b0 5b aa a2 2a 9e 06 27 40 5b aa a2 2a 9e 06 27 40
       11.512925464970229 11.512925464970229
0005c0 5b aa a2 2a 9e 06 27 40 5b aa a2 2a 9e 06 27 40
       11.512925464970229 11.512925464970229
0005d0 5b aa a2 2a 9e 06 27 40 5b aa a2 2a 9e 06 27 40
       11.512925464970229 11.512925464970229
0005e0 5b aa a2 2a 9e 06 27 40 5b aa a2 2a 9e 06 27 40
       11.512925464970229 11.512925464970229
0005f0 5b aa a2 2a 9e 06 27 40 5b aa a2 2a 9e 06 27 40
       11.512925464970229 11.512925464970229
000600 5b aa a2 2a 9e 06 27 40 5b aa a2 2a 9e 06 27 40
       11.512925464970229 11.512925464970229
000610 5b aa a2 2a 9e 06 27 40 5b aa a2 2a 9e 06 27 40
       11.512925464970229 11.512925464970229
000620 5b aa a2 2a 9e 06 27 40 5b aa a2 2a 9e 06 27 40
       11.512925464970229 11.512925464970229
000630 5b aa a2 2a 9e 06 27 40 5b aa a2 2a 9e 06 27 40
       11.512925464970229 11.512925464970229
000640 5b aa a2 2a 9e 06 27 40 5b aa a2 2a 9e 06 27 40
       11.512925464970229 11.512925464970229
000650 5b aa a2 2a 9e 06 27 40 5b aa a2 2a 9e 06 27 40
       11.512925464970229 11.512925464970229
000660 5b aa a2 2a 9e 06 27 40 5b aa a2 2a 9e 06 27 40
       11.512925464970229 11.512925464970229
000670 5b aa a2 2a 9e 06 27 40 5b aa a2 2a 9e 06 27 40
       11.512925464970229 11.512925464970229
000680 5b aa a2 2a 9e 06 27 40 5b aa a2 2a 9e 06 27 40
       11.512925464970229 11.512925464970229
000690 5b aa a2 2a 9e 06 27 40 5b aa a2 2a 9e 06 27 40
       11.512925464970229 11.512925464970229
0006a0 5b aa a2 2a 9e 06 27 40 5b aa a2 2a 9e 06 27 40
       11.512925464970229 11.512925464970229
0006b0 5b aa a2 2a 9e 06 27 40 5b aa a2 2a 9e 06 27 40
       11.512925464970229 11.512925464970229
0006c0 5b aa a2 2a 9e 06 27 40 5b aa a2 2a 9e 06 27 40
       11.512925464970229 11.512925464970229
0006d0 5b aa a2 2a 9e 06 27 40 5b aa a2 2a 9e 06 27 40
       11.512925464970229 11.512925464970229
0006e0 5b aa a2 2a 9e 06 27 40 5b aa a2 2a 9e 06 27 40
       11.512925464970229 11.512925464970229
0006f0 5b aa a2 2a 9e 06 27 40 5b aa a2 2a 9e 06 27 40
       11.512925464970229 11.512925464970229
000700 5b aa a2 2a 9e 06 27 40 5b aa a2 2a 9e 06 27 40
       11.512925464970229 11.512925464970229
000710 5b aa a2 2a 9e 06 27 40 5b aa a2 2a 9e 06 27 40
       11.512925464970229 11.512925464970229
000720 5b aa a2 2a 9e 06 27 40 5b aa a2 2a 9e 06 27 40
       11.512925464970229 11.512925464970229
000730 5b aa a2 2a 9e 06 27 40 5b aa a2 2a 9e 06 27 40
       11.512925464970229 11.512925464970229
000740 5b aa a2 2a 9e 06 27 40 5b aa a2 2a 9e 06 27 40
       11.512925464970229 11.512925464970229
000750 5b aa a2 2a 9e 06 27 40 5b aa a2 2a 9e 06 27 40
       11.512925464970229 11.512925464970229
000760 5b aa a2 2a 9e 06 27 40 5b aa a2 2a 9e 06 27 40
       11.512925464970229 11.512925464970229
000770 5b aa a2 2a 9e 06 27 40 5b aa a2 2a 9e 06 27 40
       11.512925464970229 11.512925464970229
000780 5b aa a2 2a 9e 06 27 40 5b aa a2 2a 9e 06 27 40
       11.512925464970229 11.512925464970229
000790 5b aa a2 2a 9e 06 27 40 5b aa a2 2a 9e 06 27 40
       11.512925464970229 11.512925464970229
0007a0 5b aa a2 2a 9e 06 27 40 5b aa a2 2a 9e 06 27 40
       11.512925464970229 11.512925464970229
0007b0 5b aa a2 2a 9e 06 27 40 5b aa a2 2a 9e 06 27 40
       11.512925464970229 11.512925464970229
0007c0 5b aa a2 2a 9e 06 27 40 5b aa a2 2a 9e 06 27 40
       11.512925464970229 11.512925464970229
0007d0 5b aa a2 2a 9e 06 27 40 5b aa a2 2a 9e 06 27 40
       11.512925464970229 11.512925464970229
0007e0 5b aa a2 2a 9e 06 27 40 5b aa a2 2a 9e 06 27 40
       11.512925464970229 11.512925464970229
0007f0 5b aa a2 2a 9e 06 27 40 5b aa a2 2a 9e 06 27 40
       11.512925464970229 11.512925464970229
